models_msgcn/gait/attention_ann.pth (torch, 3103 bytes, 4 tensors)

weight f4 [12, 9]
000000 21 de c5 3d 1b 6b 09 3e 6e e8 cf be 36 da 53 3e
       0.09661508 0.13419764 -0.40607017 0.2068871
000010 2f 92 72 be 7a 1c 42 be 3f 05 05 3e 84 34 ae be
       -0.23688577 -0.18956175 0.12990282 -0.3402444
000020 0e ab 38 bd 2c c4 81 3d 58 2f d7 bd 4a 7d 9b bd
       -0.045085005 0.06336245 -0.10507077 -0.07592256
000030 71 6a a7 3e 66 77 a8 bc 54 59 e0 bd 6f 0c cf 3c
       0.32698396 -0.020564746 -0.10954538 0.025274483
000040 2b 82 e7 be 76 ed d4 3e 56 86 ab be fa 16 7a 3e
       -0.45216498 0.41587418 -0.33500928 0.24422827
000050 9f 48 f9 bc 9d bb 7d be 6a 3f 36 be 8f 29 4d be
       -0.030430136 -0.247786 -0.17797628 -0.20035385
000060 16 21 30 be 91 f1 f9 3d 0c b9 43 be 5e 46 4c 3e
       -0.17200121 0.12204278 -0.19113559 0.19948718
000070 42 c3 d4 3e a4 93 23 be 15 3c a1 3e a0 87 95 3d
       0.4155522 -0.15974289 0.3149115 0.07301259
000080 83 12 4d be ac 62 88 3e 8d b0 5f 3e fd 91 a9 be
       -0.20026593 0.2663778 0.21844693 -0.33119193
000090 3b e7 a6 be 54 e6 e7 3d f1 bb c1 3e 1a a2 2d be
       -0.3259829 0.113232285 0.378387 -0.16956368
0000a0 24 73 03 be c6 c2 8e bd 23 09 2e bd 0e 0c eb 3e
       -0.12836891 -0.06970744 -0.042489182 0.45907634
0000b0 b7 9f 55 3e 16 d2 01 3d 76 fe 55 3d a0 3d 80 be
       0.20861708 0.031694494 0.052244626 -0.25047016
0000c0 c5 d7 2c 3c 20 7e b6 be 3f e4 a8 3d d1 69 94 bc
       0.01054949 -0.356431 0.082466595 -0.018116863
0000d0 9d d3 d2 be 3c 2f 07 3e 42 4a 0e be fc 66 bf bd
       -0.41177073 0.13201612 -0.13895515 -0.093458146
0000e0 c6 a0 5f be 8e f2 80 be dd 67 b2 be 41 f5 84 be
       -0.21838674 -0.25185055 -0.34844866 -0.25968364
0000f0 a2 a5 4c bc 86 a4 92 bd f8 1d 1a 3e 1c c9 58 3e
       -0.012490662 -0.071602866 0.15050495 0.21170467
000100 87 eb b5 3e 1d 54 21 bd 9b a5 99 3e 7d 05 a8 bb
       0.35531256 -0.039386857 0.3000916 -0.0051276074
000110 2b 52 d6 3d c2 8c 3b be 8f 4e c6 3e 87 05 81 be
       0.10464891 -0.18315414 0.3873181 -0.2519953
000120 1b db 11 bb b1 df 0a 3e 4f 10 d2 bd 31 97 e0 3e
       -0.0022255841 0.13561894 -0.10257017 0.4386535
000130 61 d2 36 3e 69 f7 77 3d 5a f7 cc bd 99 1e c9 3c
       0.1785369 0.060538683 -0.10008116 0.024550723
000140 5a e7 ad be 64 86 56 be ec f0 be bd d3 9a 81 3e
       -0.3396557 -0.20949703 -0.09323296 0.25313434
000150 d0 c9 63 be 64 c6 16 be e5 8a 2e 3e be 0c f8 3d
       -0.22244954 -0.14724118 0.17045172 0.121118054
000160 f6 3a 7c be 21 c8 0c 3e 8f 45 84 bd ca ec d8 be
       -0.24631867 0.13748218 -0.0645858 -0.42368156
000170 6c 0f ca be 48 bb 66 3e ff a9 06 3e ba 39 56 be
       -0.3946489 0.2253238 0.13150786 -0.20920458
000180 d4 fd 67 3e 82 c2 2d be ea 17 b4 3e 35 a0 91 3e
       0.22655421 -0.1696873 0.35174495 0.2844254
000190 e2 cd 60 3e 8e 12 99 3d 2b 10 81 bc ed 10 8d bc
       0.21953538 0.07474242 -0.01575478 -0.017219985
0001a0 85 7a b7 be 4c 71 8e 3d 50 71 46 3d 6b 0f e5 bd
       -0.35835662 0.069552034 0.048447907 -0.11184581

bias f4 [12]
000000 14 fc 09 be 6f 06 1a be 47 2f ae be 9c be 18 3c
       -0.13475066 -0.15041517 -0.34020445 0.009322789
000010 d4 0a 26 be 07 37 af be e6 7f 94 bc 58 ca 98 3c
       -0.16215068 -0.3422167 -0.018127393 0.018651173
000020 1b bc 60 3e 43 91 b7 bd a4 4a fb 3d f5 14 c2 be
       0.21946757 -0.08963253 0.12270096 -0.37906614

weight f4 [2, 12]
000000 5b 5b 3b be 9c f7 e8 bd b5 7c a1 be f1 ba 07 bc
       -0.18296568 -0.11375353 -0.31540456 -0.008284316
000010 80 9d 64 bc 26 89 94 bd 34 01 d0 bc fa c4 2e 3e
       -0.013953567 -0.072527215 -0.025391199 0.17067328
000020 99 41 27 bd 8d cf 0b 3e af fe 62 3e 5c 80 82 bd
       -0.040834043 0.13653393 0.22167467 -0.06372139
000030 d5 55 a5 bd 42 27 29 be 74 99 9b 3d 8d 6a a9 3d
       -0.08073012 -0.16518882 0.07597628 0.08272276
000040 18 78 86 bd 68 be 04 3e 65 b8 3f 3e 9d a7 9e 3e
       -0.06565875 0.12963259 0.18722685 0.30987254
000050 d1 0f c7 bd b6 58 9e bd 78 e9 a4 3d 5f 84 76 3e
       -0.097198136 -0.07731764 0.08052343 0.24073933

bias f4 [2]
000000 8d 75 9b 3d 8e 95 89 be
       0.075907804 -0.26871914
